…
I1107 09:11:50.058806 13544 net.cpp:49] Initializing net from parameters: 
name: "CUBCompactBilinearNet"
state {
  phase: TEST
}
layer {
  name: "data"
  type: "TLImageData"
  top: "data"
  top: "label_coarse"
  top: "label_fine"
  include {
    phase: TEST
  }
  transform_param {
    mirror: false
    crop_size: 448
    mean_value: 136.093
    mean_value: 130.144
    mean_value: 120.202
  }
  image_data_param {
    source: "data/jointaircrafts/data/test.txt"
    batch_size: 4
    shuffle: true
    new_height: 512
    new_width: 512
    root_folder: "data/jointaircrafts/data/jointaircrafts_images/"
  }
}
layer {
  name: "conv1_1_coarse"
  type: "Convolution"
  bottom: "data"
  top: "conv1_1_coarse"
  param {
    lr_mult: 1
    decay_mult: 1
  }
  param {
    lr_mult: 2
    decay_mult: 0
  }
  convolution_param {
    num_output: 64
    pad: 1
    kernel_size: 3
  }
}
layer {
  name: "relu1_1_coarse"
  type: "ReLU"
  bottom: "conv1_1_coarse"
  top: "conv1_1_coarse"
}
layer {
  name: "conv1_2_coarse"
  type: "Convolution"
  bottom: "conv1_1_coarse"
  top: "conv1_2_coarse"
  param {
    lr_mult: 1
    decay_mult: 1
  }
  param {
    lr_mult: 2
    decay_mult: 0
  }
  convolution_param {
    num_output: 64
    pad: 1
    kernel_size: 3
  }
}
layer {
  name: "relu1_2_coarse"
  type: "ReLU"
  bottom: "conv1_2_coarse"
  top: "conv1_2_coarse"
}
layer {
  name: "pool1_coarse"
  type: "Pooling"
  bottom: "conv1_2_coarse"
  top: "pool1_coarse"
  pooling_param {
    pool: MAX
    kernel_size: 2
    stride: 2
  }
}
layer {
  name: "conv2_1_coarse"
  type: "Convolution"
  bottom: "pool1_coarse"
  top: "conv2_1_coarse"
  param {
    lr_mult: 1
    decay_mult: 1
  }
  param {
    lr_mult: 2
    decay_mult: 0
  }
  convolution_param {
    num_output: 128
    pad: 1
    kernel_size: 3
  }
}
layer {
  name: "relu2_1_coarse"
  type: "ReLU"
  bottom: "conv2_1_coarse"
  top: "conv2_1_coarse"
}
layer {
  name: "conv2_2_coarse"
  type: "Convolution"
  bottom: "conv2_1_coarse"
  top: "conv2_2_coarse"
  param {
    lr_mult: 1
    decay_mult: 1
  }
  param {
    lr_mult: 2
    decay_mult: 0
  }
  convolution_param {
    num_output: 128
    pad: 1
    kernel_size: 3
  }
}
layer {
  name: "relu2_2_coarse"
  type: "ReLU"
  bottom: "conv2_2_coarse"
  top: "conv2_2_coarse"
}
layer {
  name: "pool2_coarse"
  type: "Pooling"
  bottom: "conv2_2_coarse"
  top: "pool2_coarse"
  pooling_param {
    pool: MAX
    kernel_size: 2
    stride: 2
  }
}
layer {
  name: "conv3_1_coarse"
  type: "Convolution"
  bottom: "pool2_coarse"
  top: "conv3_1_coarse"
  param {
    lr_mult: 1
    decay_mult: 1
  }
  param {
    lr_mult: 2
    decay_mult: 0
  }
  convolution_param {
    num_output: 256
    pad: 1
    kernel_size: 3
  }
}
layer {
  name: "relu3_1_coarse"
  type: "ReLU"
  bottom: "conv3_1_coarse"
  top: "conv3_1_coarse"
}
layer {
  name: "conv3_2_coarse"
  type: "Convolution"
  bottom: "conv3_1_coarse"
  top: "conv3_2_coarse"
  param {
    lr_mult: 1
    decay_mult: 1
  }
  param {
    lr_mult: 2
    decay_mult: 0
  }
  convolution_param {
    num_output: 256
    pad: 1
    kernel_size: 3
  }
}
layer {
  name: "relu3_2_coarse"
  type: "ReLU"
  bottom: "conv3_2_coarse"
  top: "conv3_2_coarse"
}
layer {
  name: "conv3_3_coarse"
  type: "Convolution"
  bottom: "conv3_2_coarse"
  top: "conv3_3_coarse"
  param {
    lr_mult: 1
    decay_mult: 1
  }
  param {
    lr_mult: 2
    decay_mult: 0
  }
  convolution_param {
    num_output: 256
    pad: 1
    kernel_size: 3
  }
}
layer {
  name: "relu3_3_coarse"
  type: "ReLU"
  bottom: "conv3_3_coarse"
  top: "conv3_3_coarse"
}
layer {
  name: "pool3_coarse"
  type: "Pooling"
  bottom: "conv3_3_coarse"
  top: "pool3_coarse"
  pooling_param {
    pool: MAX
    kernel_size: 2
    stride: 2
  }
}
layer {
  name: "conv4_1_coarse"
  type: "Convolution"
  bottom: "pool3_coarse"
  top: "conv4_1_coarse"
  param {
    lr_mult: 1
    decay_mult: 1
  }
  param {
    lr_mult: 2
    decay_mult: 0
  }
  convolution_param {
    num_output: 512
    pad: 1
    kernel_size: 3
  }
}
layer {
  name: "relu4_1_coarse"
  type: "ReLU"
  bottom: "conv4_1_coarse"
  top: "conv4_1_coarse"
}
layer {
  name: "conv4_2_coarse"
  type: "Convolution"
  bottom: "conv4_1_coarse"
  top: "conv4_2_coarse"
  param {
    lr_mult: 1
    decay_mult: 1
  }
  param {
    lr_mult: 2
    decay_mult: 0
  }
  convolution_param {
    num_output: 512
    pad: 1
    kernel_size: 3
  }
}
layer {
  name: "relu4_2_coarse"
  type: "ReLU"
  bottom: "conv4_2_coarse"
  top: "conv4_2_coarse"
}
layer {
  name: "conv4_3_coarse"
  type: "Convolution"
  bottom: "conv4_2_coarse"
  top: "conv4_3_coarse"
  param {
    lr_mult: 1
    decay_mult: 1
  }
  param {
    lr_mult: 2
    decay_mult: 0
  }
  convolution_param {
    num_output: 512
    pad: 1
    kernel_size: 3
  }
}
layer {
  name: "relu4_3_coarse"
  type: "ReLU"
  bottom: "conv4_3_coarse"
  top: "conv4_3_coarse"
}
layer {
  name: "pool4_coarse"
  type: "Pooling"
  bottom: "conv4_3_coarse"
  top: "pool4_coarse"
  pooling_param {
    pool: MAX
    kernel_size: 2
    stride: 2
  }
}
layer {
  name: "conv5_1_coarse"
  type: "Convolution"
  bottom: "pool4_coarse"
  top: "conv5_1_coarse"
  param {
    lr_mult: 1
    decay_mult: 1
  }
  param {
    lr_mult: 2
    decay_mult: 0
  }
  convolution_param {
    num_output: 512
    pad: 1
    kernel_size: 3
  }
}
layer {
  name: "relu5_1_coarse"
  type: "ReLU"
  bottom: "conv5_1_coarse"
  top: "conv5_1_coarse"
}
layer {
  name: "conv5_2_coarse"
  type: "Convolution"
  bottom: "conv5_1_coarse"
  top: "conv5_2_coarse"
  param {
    lr_mult: 1
    decay_mult: 1
  }
  param {
    lr_mult: 2
    decay_mult: 0
  }
  convolution_param {
    num_output: 512
    pad: 1
    kernel_size: 3
  }
}
layer {
  name: "relu5_2_coarse"
  type: "ReLU"
  bottom: "conv5_2_coarse"
  top: "conv5_2_coarse"
}
layer {
  name: "conv5_3_coarse"
  type: "Convolution"
  bottom: "conv5_2_coarse"
  top: "conv5_3_coarse"
  param {
    lr_mult: 1
    decay_mult: 1
  }
  param {
    lr_mult: 2
    decay_mult: 0
  }
  convolution_param {
    num_output: 512
    pad: 1
    kernel_size: 3
  }
}
layer {
  name: "relu5_3_coarse"
  type: "ReLU"
  bottom: "conv5_3_coarse"
  top: "conv5_3_coarse"
}
layer {
  name: "conv1_1_fine"
  type: "Convolution"
  bottom: "data"
  top: "conv1_1_fine"
  param {
    lr_mult: 1
    decay_mult: 1
  }
  param {
    lr_mult: 2
    decay_mult: 0
  }
  convolution_param {
    num_output: 64
    pad: 1
    kernel_size: 3
  }
}
layer {
  name: "relu1_1_fine"
  type: "ReLU"
  bottom: "conv1_1_fine"
  top: "conv1_1_fine"
}
layer {
  name: "conv1_2_fine"
  type: "Convolution"
  bottom: "conv1_1_fine"
  top: "conv1_2_fine"
  param {
    lr_mult: 1
    decay_mult: 1
  }
  param {
    lr_mult: 2
    decay_mult: 0
  }
  convolution_param {
    num_output: 64
    pad: 1
    kernel_size: 3
  }
}
layer {
  name: "relu1_2_fine"
  type: "ReLU"
  bottom: "conv1_2_fine"
  top: "conv1_2_fine"
}
layer {
  name: "pool1_fine"
  type: "Pooling"
  bottom: "conv1_2_fine"
  top: "pool1_fine"
  pooling_param {
    pool: MAX
    kernel_size: 2
    stride: 2
  }
}
layer {
  name: "conv2_1_fine"
  type: "Convolution"
  bottom: "pool1_fine"
  top: "conv2_1_fine"
  param {
    lr_mult: 1
    decay_mult: 1
  }
  param {
    lr_mult: 2
    decay_mult: 0
  }
  convolution_param {
    num_output: 128
    pad: 1
    kernel_size: 3
  }
}
layer {
  name: "relu2_1_fine"
  type: "ReLU"
  bottom: "conv2_1_fine"
  top: "conv2_1_fine"
}
layer {
  name: "conv2_2_fine"
  type: "Convolution"
  bottom: "conv2_1_fine"
  top: "conv2_2_fine"
  param {
    lr_mult: 1
    decay_mult: 1
  }
  param {
    lr_mult: 2
    decay_mult: 0
  }
  convolution_param {
    num_output: 128
    pad: 1
    kernel_size: 3
  }
}
layer {
  name: "relu2_2_fine"
  type: "ReLU"
  bottom: "conv2_2_fine"
  top: "conv2_2_fine"
}
layer {
  name: "pool2_fine"
  type: "Pooling"
  bottom: "conv2_2_fine"
  top: "pool2_fine"
  pooling_param {
    pool: MAX
    kernel_size: 2
    stride: 2
  }
}
layer {
  name: "conv3_1_fine"
  type: "Convolution"
  bottom: "pool2_fine"
  top: "conv3_1_fine"
  param {
    lr_mult: 1
    decay_mult: 1
  }
  param {
    lr_mult: 2
    decay_mult: 0
  }
  convolution_param {
    num_output: 256
    pad: 1
    kernel_size: 3
  }
}
layer {
  name: "relu3_1_fine"
  type: "ReLU"
  bottom: "conv3_1_fine"
  top: "conv3_1_fine"
}
layer {
  name: "conv3_2_fine"
  type: "Convolution"
  bottom: "conv3_1_fine"
  top: "conv3_2_fine"
  param {
    lr_mult: 1
    decay_mult: 1
  }
  param {
    lr_mult: 2
    decay_mult: 0
  }
  convolution_param {
    num_output: 256
    pad: 1
    kernel_size: 3
  }
}
layer {
  name: "relu3_2_fine"
  type: "ReLU"
  bottom: "conv3_2_fine"
  top: "conv3_2_fine"
}
layer {
  name: "conv3_3_fine"
  type: "Convolution"
  bottom: "conv3_2_fine"
  top: "conv3_3_fine"
  param {
    lr_mult: 1
    decay_mult: 1
  }
  param {
    lr_mult: 2
    decay_mult: 0
  }
  convolution_param {
    num_output: 256
    pad: 1
    kernel_size: 3
  }
}
layer {
  name: "relu3_3_fine"
  type: "ReLU"
  bottom: "conv3_3_fine"
  top: "conv3_3_fine"
}
layer {
  name: "pool3_fine"
  type: "Pooling"
  bottom: "conv3_3_fine"
  top: "pool3_fine"
  pooling_param {
    pool: MAX
    kernel_size: 2
    stride: 2
  }
}
layer {
  name: "conv4_1_fine"
  type: "Convolution"
  bottom: "pool3_fine"
  top: "conv4_1_fine"
  param {
    lr_mult: 1
    decay_mult: 1
  }
  param {
    lr_mult: 2
    decay_mult: 0
  }
  convolution_param {
    num_output: 512
    pad: 1
    kernel_size: 3
  }
}
layer {
  name: "relu4_1_fine"
  type: "ReLU"
  bottom: "conv4_1_fine"
  top: "conv4_1_fine"
}
layer {
  name: "conv4_2_fine"
  type: "Convolution"
  bottom: "conv4_1_fine"
  top: "conv4_2_fine"
  param {
    lr_mult: 1
    decay_mult: 1
  }
  param {
    lr_mult: 2
    decay_mult: 0
  }
  convolution_param {
    num_output: 512
    pad: 1
    kernel_size: 3
  }
}
layer {
  name: "relu4_2_fine"
  type: "ReLU"
  bottom: "conv4_2_fine"
  top: "conv4_2_fine"
}
layer {
  name: "conv4_3_fine"
  type: "Convolution"
  bottom: "conv4_2_fine"
  top: "conv4_3_fine"
  param {
    lr_mult: 1
    decay_mult: 1
  }
  param {
    lr_mult: 2
    decay_mult: 0
  }
  convolution_param {
    num_output: 512
    pad: 1
    kernel_size: 3
  }
}
layer {
  name: "relu4_3_fine"
  type: "ReLU"
  bottom: "conv4_3_fine"
  top: "conv4_3_fine"
}
layer {
  name: "pool4_fine"
  type: "Pooling"
  bottom: "conv4_3_fine"
  top: "pool4_fine"
  pooling_param {
    pool: MAX
    kernel_size: 2
    stride: 2
  }
}
layer {
  name: "conv5_1_fine"
  type: "Convolution"
  bottom: "pool4_fine"
  top: "conv5_1_fine"
  param {
    lr_mult: 1
    decay_mult: 1
  }
  param {
    lr_mult: 2
    decay_mult: 0
  }
  convolution_param {
    num_output: 512
    pad: 1
    kernel_size: 3
  }
}
layer {
  name: "relu5_1_fine"
  type: "ReLU"
  bottom: "conv5_1_fine"
  top: "conv5_1_fine"
}
layer {
  name: "conv5_2_fine"
  type: "Convolution"
  bottom: "conv5_1_fine"
  top: "conv5_2_fine"
  param {
    lr_mult: 1
    decay_mult: 1
  }
  param {
    lr_mult: 2
    decay_mult: 0
  }
  convolution_param {
    num_output: 512
    pad: 1
    kernel_size: 3
  }
}
layer {
  name: "relu5_2_fine"
  type: "ReLU"
  bottom: "conv5_2_fine"
  top: "conv5_2_fine"
}
layer {
  name: "conv5_3_fine"
  type: "Convolution"
  bottom: "conv5_2_fine"
  top: "conv5_3_fine"
  param {
    lr_mult: 1
    decay_mult: 1
  }
  param {
    lr_mult: 2
    decay_mult: 0
  }
  convolution_param {
    num_output: 512
    pad: 1
    kernel_size: 3
  }
}
layer {
  name: "relu5_3_fine"
  type: "ReLU"
  bottom: "conv5_3_fine"
  top: "conv5_3_fine"
}
layer {
  name: "bilinear_layer_fused"
  type: "CompactBilinear"
  bottom: "conv5_3_coarse"
  bottom: "conv5_3_fine"
  top: "bilinear_fused"
  compact_bilinear_param {
    num_output: 8192
    sum_pool: true
  }
}
layer {
  name: "signed_sqrt_layer_fused"
  type: "SignedSqrt"
  bottom: "bilinear_fused"
  top: "bilinear_sqrt_fused"
}
layer {
  name: "l2_normalization_layer_fused"
  type: "L2Normalize"
  bottom: "bilinear_sqrt_fused"
  top: "bilinear_l2_fused"
}
layer {
  name: "fc8_cub200_fused"
  type: "InnerProduct"
  bottom: "bilinear_l2_fused"
  top: "fc8_cub_fused"
  param {
    lr_mult: 1
    decay_mult: 1
  }
  param {
    lr_mult: 2
    decay_mult: 2
  }
  inner_product_param {
    num_output: 100
  }
}
layer {
  name: "loss_fused"
  type: "SoftmaxWithLoss"
  bottom: "fc8_cub_fused"
  bottom: "label_fine"
  top: "loss_fused"
  loss_weight: 1
}
layer {
  name: "accuracy_fused"
  type: "Accuracy"
  bottom: "fc8_cub_fused"
  bottom: "label_fine"
  top: "accuracy_fused"
  include {
    phase: TEST
  }
}
I1107 09:11:50.059209 13544 layer_factory.hpp:77] Creating layer data
I1107 09:11:50.059252 13544 net.cpp:91] Creating Layer data
I1107 09:11:50.059263 13544 net.cpp:399] data -> data
I1107 09:11:50.059312 13544 net.cpp:399] data -> label_coarse
I1107 09:11:50.059326 13544 net.cpp:399] data -> label_fine
I1107 09:11:50.059350 13544 tl_image_data_layer.cpp:40] Opening file data/jointaircrafts/data/test.txt
I1107 09:11:50.061342 13544 tl_image_data_layer.cpp:65] Shuffling data
I1107 09:11:50.062144 13544 tl_image_data_layer.cpp:70] A total of 3333/3333 images.
I1107 09:11:50.185160 13544 tl_image_data_layer.cpp:97] output data size: 4,3,448,448
I1107 09:11:50.207599 13544 net.cpp:141] Setting up data
I1107 09:11:50.207708 13544 net.cpp:148] Top shape: 4 3 448 448 (2408448)
I1107 09:11:50.207731 13544 net.cpp:148] Top shape: 4 (4)
I1107 09:11:50.207737 13544 net.cpp:148] Top shape: 4 (4)
I1107 09:11:50.207742 13544 net.cpp:156] Memory required for data: 9633824
I1107 09:11:50.207753 13544 layer_factory.hpp:77] Creating layer data_data_0_split
I1107 09:11:50.207775 13544 net.cpp:91] Creating Layer data_data_0_split
I1107 09:11:50.207784 13544 net.cpp:425] data_data_0_split <- data
I1107 09:11:50.207803 13544 net.cpp:399] data_data_0_split -> data_data_0_split_0
I1107 09:11:50.207818 13544 net.cpp:399] data_data_0_split -> data_data_0_split_1
I1107 09:11:50.207923 13544 net.cpp:141] Setting up data_data_0_split
I1107 09:11:50.207933 13544 net.cpp:148] Top shape: 4 3 448 448 (2408448)
I1107 09:11:50.207940 13544 net.cpp:148] Top shape: 4 3 448 448 (2408448)
I1107 09:11:50.207944 13544 net.cpp:156] Memory required for data: 28901408
I1107 09:11:50.207948 13544 layer_factory.hpp:77] Creating layer label_fine_data_2_split
I1107 09:11:50.207957 13544 net.cpp:91] Creating Layer label_fine_data_2_split
I1107 09:11:50.207962 13544 net.cpp:425] label_fine_data_2_split <- label_fine
I1107 09:11:50.207968 13544 net.cpp:399] label_fine_data_2_split -> label_fine_data_2_split_0
I1107 09:11:50.207976 13544 net.cpp:399] label_fine_data_2_split -> label_fine_data_2_split_1
I1107 09:11:50.208014 13544 net.cpp:141] Setting up label_fine_data_2_split
I1107 09:11:50.208021 13544 net.cpp:148] Top shape: 4 (4)
I1107 09:11:50.208026 13544 net.cpp:148] Top shape: 4 (4)
I1107 09:11:50.208030 13544 net.cpp:156] Memory required for data: 28901440
I1107 09:11:50.208035 13544 layer_factory.hpp:77] Creating layer conv1_1_coarse
I1107 09:11:50.208053 13544 net.cpp:91] Creating Layer conv1_1_coarse
I1107 09:11:50.208060 13544 net.cpp:425] conv1_1_coarse <- data_data_0_split_0
I1107 09:11:50.208067 13544 net.cpp:399] conv1_1_coarse -> conv1_1_coarse
I1107 09:11:50.210240 13544 net.cpp:141] Setting up conv1_1_coarse
I1107 09:11:50.210258 13544 net.cpp:148] Top shape: 4 64 448 448 (51380224)
I1107 09:11:50.210263 13544 net.cpp:156] Memory required for data: 234422336
I1107 09:11:50.210288 13544 layer_factory.hpp:77] Creating layer relu1_1_coarse
I1107 09:11:50.210299 13544 net.cpp:91] Creating Layer relu1_1_coarse
I1107 09:11:50.210307 13544 net.cpp:425] relu1_1_coarse <- conv1_1_coarse
I1107 09:11:50.210325 13544 net.cpp:386] relu1_1_coarse -> conv1_1_coarse (in-place)
I1107 09:11:50.210335 13544 net.cpp:141] Setting up relu1_1_coarse
I1107 09:11:50.210347 13544 net.cpp:148] Top shape: 4 64 448 448 (51380224)
I1107 09:11:50.210352 13544 net.cpp:156] Memory required for data: 439943232
I1107 09:11:50.210356 13544 layer_factory.hpp:77] Creating layer conv1_2_coarse
I1107 09:11:50.210366 13544 net.cpp:91] Creating Layer conv1_2_coarse
I1107 09:11:50.210369 13544 net.cpp:425] conv1_2_coarse <- conv1_1_coarse
I1107 09:11:50.210407 13544 net.cpp:399] conv1_2_coarse -> conv1_2_coarse
I1107 09:11:50.212460 13544 net.cpp:141] Setting up conv1_2_coarse
I1107 09:11:50.212476 13544 net.cpp:148] Top shape: 4 64 448 448 (51380224)
I1107 09:11:50.212491 13544 net.cpp:156] Memory required for data: 645464128
I1107 09:11:50.212502 13544 layer_factory.hpp:77] Creating layer relu1_2_coarse
I1107 09:11:50.212510 13544 net.cpp:91] Creating Layer relu1_2_coarse
I1107 09:11:50.212515 13544 net.cpp:425] relu1_2_coarse <- conv1_2_coarse
I1107 09:11:50.212522 13544 net.cpp:386] relu1_2_coarse -> conv1_2_coarse (in-place)
I1107 09:11:50.212530 13544 net.cpp:141] Setting up relu1_2_coarse
I1107 09:11:50.212537 13544 net.cpp:148] Top shape: 4 64 448 448 (51380224)
I1107 09:11:50.212540 13544 net.cpp:156] Memory required for data: 850985024
I1107 09:11:50.212544 13544 layer_factory.hpp:77] Creating layer pool1_coarse
I1107 09:11:50.212551 13544 net.cpp:91] Creating Layer pool1_coarse
I1107 09:11:50.212556 13544 net.cpp:425] pool1_coarse <- conv1_2_coarse
I1107 09:11:50.212563 13544 net.cpp:399] pool1_coarse -> pool1_coarse
I1107 09:11:50.212631 13544 net.cpp:141] Setting up pool1_coarse
I1107 09:11:50.212640 13544 net.cpp:148] Top shape: 4 64 224 224 (12845056)
I1107 09:11:50.212644 13544 net.cpp:156] Memory required for data: 902365248
I1107 09:11:50.212648 13544 layer_factory.hpp:77] Creating layer conv2_1_coarse
I1107 09:11:50.212661 13544 net.cpp:91] Creating Layer conv2_1_coarse
I1107 09:11:50.212666 13544 net.cpp:425] conv2_1_coarse <- pool1_coarse
I1107 09:11:50.212674 13544 net.cpp:399] conv2_1_coarse -> conv2_1_coarse
I1107 09:11:50.213807 13544 net.cpp:141] Setting up conv2_1_coarse
I1107 09:11:50.213822 13544 net.cpp:148] Top shape: 4 128 224 224 (25690112)
I1107 09:11:50.213827 13544 net.cpp:156] Memory required for data: 1005125696
I1107 09:11:50.213842 13544 layer_factory.hpp:77] Creating layer relu2_1_coarse
I1107 09:11:50.213850 13544 net.cpp:91] Creating Layer relu2_1_coarse
I1107 09:11:50.213866 13544 net.cpp:425] relu2_1_coarse <- conv2_1_coarse
I1107 09:11:50.213873 13544 net.cpp:386] relu2_1_coarse -> conv2_1_coarse (in-place)
I1107 09:11:50.213881 13544 net.cpp:141] Setting up relu2_1_coarse
I1107 09:11:50.213889 13544 net.cpp:148] Top shape: 4 128 224 224 (25690112)
I1107 09:11:50.213893 13544 net.cpp:156] Memory required for data: 1107886144
I1107 09:11:50.213898 13544 layer_factory.hpp:77] Creating layer conv2_2_coarse
I1107 09:11:50.213907 13544 net.cpp:91] Creating Layer conv2_2_coarse
I1107 09:11:50.213910 13544 net.cpp:425] conv2_2_coarse <- conv2_1_coarse
I1107 09:11:50.213917 13544 net.cpp:399] conv2_2_coarse -> conv2_2_coarse
I1107 09:11:50.214301 13544 net.cpp:141] Setting up conv2_2_coarse
I1107 09:11:50.214310 13544 net.cpp:148] Top shape: 4 128 224 224 (25690112)
I1107 09:11:50.214314 13544 net.cpp:156] Memory required for data: 1210646592
I1107 09:11:50.214331 13544 layer_factory.hpp:77] Creating layer relu2_2_coarse
I1107 09:11:50.214339 13544 net.cpp:91] Creating Layer relu2_2_coarse
I1107 09:11:50.214342 13544 net.cpp:425] relu2_2_coarse <- conv2_2_coarse
I1107 09:11:50.214349 13544 net.cpp:386] relu2_2_coarse -> conv2_2_coarse (in-place)
I1107 09:11:50.214355 13544 net.cpp:141] Setting up relu2_2_coarse
I1107 09:11:50.214360 13544 net.cpp:148] Top shape: 4 128 224 224 (25690112)
I1107 09:11:50.214365 13544 net.cpp:156] Memory required for data: 1313407040
I1107 09:11:50.214368 13544 layer_factory.hpp:77] Creating layer pool2_coarse
I1107 09:11:50.214375 13544 net.cpp:91] Creating Layer pool2_coarse
I1107 09:11:50.214380 13544 net.cpp:425] pool2_coarse <- conv2_2_coarse
I1107 09:11:50.214385 13544 net.cpp:399] pool2_coarse -> pool2_coarse
I1107 09:11:50.214423 13544 net.cpp:141] Setting up pool2_coarse
I1107 09:11:50.214432 13544 net.cpp:148] Top shape: 4 128 112 112 (6422528)
I1107 09:11:50.214435 13544 net.cpp:156] Memory required for data: 1339097152
I1107 09:11:50.214440 13544 layer_factory.hpp:77] Creating layer conv3_1_coarse
I1107 09:11:50.214448 13544 net.cpp:91] Creating Layer conv3_1_coarse
I1107 09:11:50.214468 13544 net.cpp:425] conv3_1_coarse <- pool2_coarse
I1107 09:11:50.214476 13544 net.cpp:399] conv3_1_coarse -> conv3_1_coarse
I1107 09:11:50.216534 13544 net.cpp:141] Setting up conv3_1_coarse
I1107 09:11:50.216549 13544 net.cpp:148] Top shape: 4 256 112 112 (12845056)
I1107 09:11:50.216554 13544 net.cpp:156] Memory required for data: 1390477376
I1107 09:11:50.216575 13544 layer_factory.hpp:77] Creating layer relu3_1_coarse
I1107 09:11:50.216583 13544 net.cpp:91] Creating Layer relu3_1_coarse
I1107 09:11:50.216588 13544 net.cpp:425] relu3_1_coarse <- conv3_1_coarse
I1107 09:11:50.216595 13544 net.cpp:386] relu3_1_coarse -> conv3_1_coarse (in-place)
I1107 09:11:50.216609 13544 net.cpp:141] Setting up relu3_1_coarse
I1107 09:11:50.216619 13544 net.cpp:148] Top shape: 4 256 112 112 (12845056)
I1107 09:11:50.216624 13544 net.cpp:156] Memory required for data: 1441857600
I1107 09:11:50.216631 13544 layer_factory.hpp:77] Creating layer conv3_2_coarse
I1107 09:11:50.216645 13544 net.cpp:91] Creating Layer conv3_2_coarse
I1107 09:11:50.216655 13544 net.cpp:425] conv3_2_coarse <- conv3_1_coarse
I1107 09:11:50.216665 13544 net.cpp:399] conv3_2_coarse -> conv3_2_coarse
I1107 09:11:50.218917 13544 net.cpp:141] Setting up conv3_2_coarse
I1107 09:11:50.218933 13544 net.cpp:148] Top shape: 4 256 112 112 (12845056)
I1107 09:11:50.218937 13544 net.cpp:156] Memory required for data: 1493237824
I1107 09:11:50.218946 13544 layer_factory.hpp:77] Creating layer relu3_2_coarse
I1107 09:11:50.218956 13544 net.cpp:91] Creating Layer relu3_2_coarse
I1107 09:11:50.218963 13544 net.cpp:425] relu3_2_coarse <- conv3_2_coarse
I1107 09:11:50.218981 13544 net.cpp:386] relu3_2_coarse -> conv3_2_coarse (in-place)
I1107 09:11:50.218988 13544 net.cpp:141] Setting up relu3_2_coarse
I1107 09:11:50.218993 13544 net.cpp:148] Top shape: 4 256 112 112 (12845056)
I1107 09:11:50.219005 13544 net.cpp:156] Memory required for data: 1544618048
I1107 09:11:50.219010 13544 layer_factory.hpp:77] Creating layer conv3_3_coarse
I1107 09:11:50.219019 13544 net.cpp:91] Creating Layer conv3_3_coarse
I1107 09:11:50.219023 13544 net.cpp:425] conv3_3_coarse <- conv3_2_coarse
I1107 09:11:50.219030 13544 net.cpp:399] conv3_3_coarse -> conv3_3_coarse
I1107 09:11:50.221258 13544 net.cpp:141] Setting up conv3_3_coarse
I1107 09:11:50.221274 13544 net.cpp:148] Top shape: 4 256 112 112 (12845056)
I1107 09:11:50.221288 13544 net.cpp:156] Memory required for data: 1595998272
I1107 09:11:50.221297 13544 layer_factory.hpp:77] Creating layer relu3_3_coarse
I1107 09:11:50.221304 13544 net.cpp:91] Creating Layer relu3_3_coarse
I1107 09:11:50.221309 13544 net.cpp:425] relu3_3_coarse <- conv3_3_coarse
I1107 09:11:50.221316 13544 net.cpp:386] relu3_3_coarse -> conv3_3_coarse (in-place)
I1107 09:11:50.221324 13544 net.cpp:141] Setting up relu3_3_coarse
I1107 09:11:50.221329 13544 net.cpp:148] Top shape: 4 256 112 112 (12845056)
I1107 09:11:50.221333 13544 net.cpp:156] Memory required for data: 1647378496
I1107 09:11:50.221338 13544 layer_factory.hpp:77] Creating layer pool3_coarse
I1107 09:11:50.221345 13544 net.cpp:91] Creating Layer pool3_coarse
I1107 09:11:50.221349 13544 net.cpp:425] pool3_coarse <- conv3_3_coarse
I1107 09:11:50.221356 13544 net.cpp:399] pool3_coarse -> pool3_coarse
I1107 09:11:50.221410 13544 net.cpp:141] Setting up pool3_coarse
I1107 09:11:50.221420 13544 net.cpp:148] Top shape: 4 256 56 56 (3211264)
I1107 09:11:50.221423 13544 net.cpp:156] Memory required for data: 1660223552
I1107 09:11:50.221428 13544 layer_factory.hpp:77] Creating layer conv4_1_coarse
I1107 09:11:50.221436 13544 net.cpp:91] Creating Layer conv4_1_coarse
I1107 09:11:50.221442 13544 net.cpp:425] conv4_1_coarse <- pool3_coarse
I1107 09:11:50.221462 13544 net.cpp:399] conv4_1_coarse -> conv4_1_coarse
I1107 09:11:50.226186 13544 net.cpp:141] Setting up conv4_1_coarse
I1107 09:11:50.226202 13544 net.cpp:148] Top shape: 4 512 56 56 (6422528)
I1107 09:11:50.226207 13544 net.cpp:156] Memory required for data: 1685913664
I1107 09:11:50.226222 13544 layer_factory.hpp:77] Creating layer relu4_1_coarse
I1107 09:11:50.226246 13544 net.cpp:91] Creating Layer relu4_1_coarse
I1107 09:11:50.226251 13544 net.cpp:425] relu4_1_coarse <- conv4_1_coarse
I1107 09:11:50.226258 13544 net.cpp:386] relu4_1_coarse -> conv4_1_coarse (in-place)
I1107 09:11:50.226266 13544 net.cpp:141] Setting up relu4_1_coarse
I1107 09:11:50.226272 13544 net.cpp:148] Top shape: 4 512 56 56 (6422528)
I1107 09:11:50.226276 13544 net.cpp:156] Memory required for data: 1711603776
I1107 09:11:50.226280 13544 layer_factory.hpp:77] Creating layer conv4_2_coarse
I1107 09:11:50.226289 13544 net.cpp:91] Creating Layer conv4_2_coarse
I1107 09:11:50.226295 13544 net.cpp:425] conv4_2_coarse <- conv4_1_coarse
I1107 09:11:50.226313 13544 net.cpp:399] conv4_2_coarse -> conv4_2_coarse
I1107 09:11:50.233629 13544 net.cpp:141] Setting up conv4_2_coarse
I1107 09:11:50.233649 13544 net.cpp:148] Top shape: 4 512 56 56 (6422528)
I1107 09:11:50.233664 13544 net.cpp:156] Memory required for data: 1737293888
I1107 09:11:50.233677 13544 layer_factory.hpp:77] Creating layer relu4_2_coarse
I1107 09:11:50.233686 13544 net.cpp:91] Creating Layer relu4_2_coarse
I1107 09:11:50.233692 13544 net.cpp:425] relu4_2_coarse <- conv4_2_coarse
I1107 09:11:50.233698 13544 net.cpp:386] relu4_2_coarse -> conv4_2_coarse (in-place)
I1107 09:11:50.233707 13544 net.cpp:141] Setting up relu4_2_coarse
I1107 09:11:50.233712 13544 net.cpp:148] Top shape: 4 512 56 56 (6422528)
I1107 09:11:50.233716 13544 net.cpp:156] Memory required for data: 1762984000
I1107 09:11:50.233721 13544 layer_factory.hpp:77] Creating layer conv4_3_coarse
I1107 09:11:50.233729 13544 net.cpp:91] Creating Layer conv4_3_coarse
I1107 09:11:50.233738 13544 net.cpp:425] conv4_3_coarse <- conv4_2_coarse
I1107 09:11:50.233757 13544 net.cpp:399] conv4_3_coarse -> conv4_3_coarse
I1107 09:11:50.241350 13544 net.cpp:141] Setting up conv4_3_coarse
I1107 09:11:50.241372 13544 net.cpp:148] Top shape: 4 512 56 56 (6422528)
I1107 09:11:50.241389 13544 net.cpp:156] Memory required for data: 1788674112
I1107 09:11:50.241399 13544 layer_factory.hpp:77] Creating layer relu4_3_coarse
I1107 09:11:50.241407 13544 net.cpp:91] Creating Layer relu4_3_coarse
I1107 09:11:50.241413 13544 net.cpp:425] relu4_3_coarse <- conv4_3_coarse
I1107 09:11:50.241420 13544 net.cpp:386] relu4_3_coarse -> conv4_3_coarse (in-place)
I1107 09:11:50.241430 13544 net.cpp:141] Setting up relu4_3_coarse
I1107 09:11:50.241436 13544 net.cpp:148] Top shape: 4 512 56 56 (6422528)
I1107 09:11:50.241439 13544 net.cpp:156] Memory required for data: 1814364224
I1107 09:11:50.241443 13544 layer_factory.hpp:77] Creating layer pool4_coarse
I1107 09:11:50.241451 13544 net.cpp:91] Creating Layer pool4_coarse
I1107 09:11:50.241456 13544 net.cpp:425] pool4_coarse <- conv4_3_coarse
I1107 09:11:50.241462 13544 net.cpp:399] pool4_coarse -> pool4_coarse
I1107 09:11:50.241525 13544 net.cpp:141] Setting up pool4_coarse
I1107 09:11:50.241533 13544 net.cpp:148] Top shape: 4 512 28 28 (1605632)
I1107 09:11:50.241536 13544 net.cpp:156] Memory required for data: 1820786752
I1107 09:11:50.241540 13544 layer_factory.hpp:77] Creating layer conv5_1_coarse
I1107 09:11:50.241550 13544 net.cpp:91] Creating Layer conv5_1_coarse
I1107 09:11:50.241554 13544 net.cpp:425] conv5_1_coarse <- pool4_coarse
I1107 09:11:50.241561 13544 net.cpp:399] conv5_1_coarse -> conv5_1_coarse
I1107 09:11:50.248958 13544 net.cpp:141] Setting up conv5_1_coarse
I1107 09:11:50.248980 13544 net.cpp:148] Top shape: 4 512 28 28 (1605632)
I1107 09:11:50.248986 13544 net.cpp:156] Memory required for data: 1827209280
I1107 09:11:50.248999 13544 layer_factory.hpp:77] Creating layer relu5_1_coarse
I1107 09:11:50.249007 13544 net.cpp:91] Creating Layer relu5_1_coarse
I1107 09:11:50.249013 13544 net.cpp:425] relu5_1_coarse <- conv5_1_coarse
I1107 09:11:50.249020 13544 net.cpp:386] relu5_1_coarse -> conv5_1_coarse (in-place)
I1107 09:11:50.249029 13544 net.cpp:141] Setting up relu5_1_coarse
I1107 09:11:50.249035 13544 net.cpp:148] Top shape: 4 512 28 28 (1605632)
I1107 09:11:50.249039 13544 net.cpp:156] Memory required for data: 1833631808
I1107 09:11:50.249089 13544 layer_factory.hpp:77] Creating layer conv5_2_coarse
I1107 09:11:50.249109 13544 net.cpp:91] Creating Layer conv5_2_coarse
I1107 09:11:50.249114 13544 net.cpp:425] conv5_2_coarse <- conv5_1_coarse
I1107 09:11:50.249120 13544 net.cpp:399] conv5_2_coarse -> conv5_2_coarse
I1107 09:11:50.256510 13544 net.cpp:141] Setting up conv5_2_coarse
I1107 09:11:50.256531 13544 net.cpp:148] Top shape: 4 512 28 28 (1605632)
I1107 09:11:50.256544 13544 net.cpp:156] Memory required for data: 1840054336
I1107 09:11:50.256552 13544 layer_factory.hpp:77] Creating layer relu5_2_coarse
I1107 09:11:50.256561 13544 net.cpp:91] Creating Layer relu5_2_coarse
I1107 09:11:50.256566 13544 net.cpp:425] relu5_2_coarse <- conv5_2_coarse
I1107 09:11:50.256573 13544 net.cpp:386] relu5_2_coarse -> conv5_2_coarse (in-place)
I1107 09:11:50.256582 13544 net.cpp:141] Setting up relu5_2_coarse
I1107 09:11:50.256587 13544 net.cpp:148] Top shape: 4 512 28 28 (1605632)
I1107 09:11:50.256592 13544 net.cpp:156] Memory required for data: 1846476864
I1107 09:11:50.256594 13544 layer_factory.hpp:77] Creating layer conv5_3_coarse
I1107 09:11:50.256603 13544 net.cpp:91] Creating Layer conv5_3_coarse
I1107 09:11:50.256608 13544 net.cpp:425] conv5_3_coarse <- conv5_2_coarse
I1107 09:11:50.256615 13544 net.cpp:399] conv5_3_coarse -> conv5_3_coarse
I1107 09:11:50.263943 13544 net.cpp:141] Setting up conv5_3_coarse
I1107 09:11:50.263962 13544 net.cpp:148] Top shape: 4 512 28 28 (1605632)
I1107 09:11:50.263967 13544 net.cpp:156] Memory required for data: 1852899392
I1107 09:11:50.263981 13544 layer_factory.hpp:77] Creating layer relu5_3_coarse
I1107 09:11:50.263995 13544 net.cpp:91] Creating Layer relu5_3_coarse
I1107 09:11:50.264000 13544 net.cpp:425] relu5_3_coarse <- conv5_3_coarse
I1107 09:11:50.264008 13544 net.cpp:386] relu5_3_coarse -> conv5_3_coarse (in-place)
I1107 09:11:50.264016 13544 net.cpp:141] Setting up relu5_3_coarse
I1107 09:11:50.264021 13544 net.cpp:148] Top shape: 4 512 28 28 (1605632)
I1107 09:11:50.264025 13544 net.cpp:156] Memory required for data: 1859321920
I1107 09:11:50.264029 13544 layer_factory.hpp:77] Creating layer conv1_1_fine
I1107 09:11:50.264039 13544 net.cpp:91] Creating Layer conv1_1_fine
I1107 09:11:50.264044 13544 net.cpp:425] conv1_1_fine <- data_data_0_split_1
I1107 09:11:50.264051 13544 net.cpp:399] conv1_1_fine -> conv1_1_fine
I1107 09:11:50.265257 13544 net.cpp:141] Setting up conv1_1_fine
I1107 09:11:50.265272 13544 net.cpp:148] Top shape: 4 64 448 448 (51380224)
I1107 09:11:50.265277 13544 net.cpp:156] Memory required for data: 2064842816
I1107 09:11:50.265290 13544 layer_factory.hpp:77] Creating layer relu1_1_fine
I1107 09:11:50.265296 13544 net.cpp:91] Creating Layer relu1_1_fine
I1107 09:11:50.265301 13544 net.cpp:425] relu1_1_fine <- conv1_1_fine
I1107 09:11:50.265311 13544 net.cpp:386] relu1_1_fine -> conv1_1_fine (in-place)
I1107 09:11:50.265318 13544 net.cpp:141] Setting up relu1_1_fine
I1107 09:11:50.265323 13544 net.cpp:148] Top shape: 4 64 448 448 (51380224)
I1107 09:11:50.265327 13544 net.cpp:156] Memory required for data: 2270363712
I1107 09:11:50.265331 13544 layer_factory.hpp:77] Creating layer conv1_2_fine
I1107 09:11:50.265341 13544 net.cpp:91] Creating Layer conv1_2_fine
I1107 09:11:50.265344 13544 net.cpp:425] conv1_2_fine <- conv1_1_fine
I1107 09:11:50.265352 13544 net.cpp:399] conv1_2_fine -> conv1_2_fine
I1107 09:11:50.266599 13544 net.cpp:141] Setting up conv1_2_fine
I1107 09:11:50.266624 13544 net.cpp:148] Top shape: 4 64 448 448 (51380224)
I1107 09:11:50.266629 13544 net.cpp:156] Memory required for data: 2475884608
I1107 09:11:50.266644 13544 layer_factory.hpp:77] Creating layer relu1_2_fine
I1107 09:11:50.266651 13544 net.cpp:91] Creating Layer relu1_2_fine
I1107 09:11:50.266666 13544 net.cpp:425] relu1_2_fine <- conv1_2_fine
I1107 09:11:50.266672 13544 net.cpp:386] relu1_2_fine -> conv1_2_fine (in-place)
I1107 09:11:50.266680 13544 net.cpp:141] Setting up relu1_2_fine
I1107 09:11:50.266686 13544 net.cpp:148] Top shape: 4 64 448 448 (51380224)
I1107 09:11:50.266733 13544 net.cpp:156] Memory required for data: 2681405504
I1107 09:11:50.266737 13544 layer_factory.hpp:77] Creating layer pool1_fine
I1107 09:11:50.266746 13544 net.cpp:91] Creating Layer pool1_fine
I1107 09:11:50.266752 13544 net.cpp:425] pool1_fine <- conv1_2_fine
I1107 09:11:50.266770 13544 net.cpp:399] pool1_fine -> pool1_fine
I1107 09:11:50.266818 13544 net.cpp:141] Setting up pool1_fine
I1107 09:11:50.266826 13544 net.cpp:148] Top shape: 4 64 224 224 (12845056)
I1107 09:11:50.266830 13544 net.cpp:156] Memory required for data: 2732785728
I1107 09:11:50.266834 13544 layer_factory.hpp:77] Creating layer conv2_1_fine
I1107 09:11:50.266849 13544 net.cpp:91] Creating Layer conv2_1_fine
I1107 09:11:50.266855 13544 net.cpp:425] conv2_1_fine <- pool1_fine
I1107 09:11:50.266863 13544 net.cpp:399] conv2_1_fine -> conv2_1_fine
I1107 09:11:50.268014 13544 net.cpp:141] Setting up conv2_1_fine
I1107 09:11:50.268030 13544 net.cpp:148] Top shape: 4 128 224 224 (25690112)
I1107 09:11:50.268035 13544 net.cpp:156] Memory required for data: 2835546176
I1107 09:11:50.268049 13544 layer_factory.hpp:77] Creating layer relu2_1_fine
I1107 09:11:50.268056 13544 net.cpp:91] Creating Layer relu2_1_fine
I1107 09:11:50.268062 13544 net.cpp:425] relu2_1_fine <- conv2_1_fine
I1107 09:11:50.268069 13544 net.cpp:386] relu2_1_fine -> conv2_1_fine (in-place)
I1107 09:11:50.268076 13544 net.cpp:141] Setting up relu2_1_fine
I1107 09:11:50.268082 13544 net.cpp:148] Top shape: 4 128 224 224 (25690112)
I1107 09:11:50.268085 13544 net.cpp:156] Memory required for data: 2938306624
I1107 09:11:50.268090 13544 layer_factory.hpp:77] Creating layer conv2_2_fine
I1107 09:11:50.268098 13544 net.cpp:91] Creating Layer conv2_2_fine
I1107 09:11:50.268102 13544 net.cpp:425] conv2_2_fine <- conv2_1_fine
I1107 09:11:50.268108 13544 net.cpp:399] conv2_2_fine -> conv2_2_fine
I1107 09:11:50.269273 13544 net.cpp:141] Setting up conv2_2_fine
I1107 09:11:50.269286 13544 net.cpp:148] Top shape: 4 128 224 224 (25690112)
I1107 09:11:50.269291 13544 net.cpp:156] Memory required for data: 3041067072
I1107 09:11:50.269307 13544 layer_factory.hpp:77] Creating layer relu2_2_fine
I1107 09:11:50.269315 13544 net.cpp:91] Creating Layer relu2_2_fine
I1107 09:11:50.269325 13544 net.cpp:425] relu2_2_fine <- conv2_2_fine
I1107 09:11:50.269331 13544 net.cpp:386] relu2_2_fine -> conv2_2_fine (in-place)
I1107 09:11:50.269348 13544 net.cpp:141] Setting up relu2_2_fine
I1107 09:11:50.269353 13544 net.cpp:148] Top shape: 4 128 224 224 (25690112)
I1107 09:11:50.269358 13544 net.cpp:156] Memory required for data: 3143827520
I1107 09:11:50.269362 13544 layer_factory.hpp:77] Creating layer pool2_fine
I1107 09:11:50.269369 13544 net.cpp:91] Creating Layer pool2_fine
I1107 09:11:50.269374 13544 net.cpp:425] pool2_fine <- conv2_2_fine
I1107 09:11:50.269381 13544 net.cpp:399] pool2_fine -> pool2_fine
I1107 09:11:50.269426 13544 net.cpp:141] Setting up pool2_fine
I1107 09:11:50.269434 13544 net.cpp:148] Top shape: 4 128 112 112 (6422528)
I1107 09:11:50.269438 13544 net.cpp:156] Memory required for data: 3169517632
I1107 09:11:50.269443 13544 layer_factory.hpp:77] Creating layer conv3_1_fine
I1107 09:11:50.269451 13544 net.cpp:91] Creating Layer conv3_1_fine
I1107 09:11:50.269459 13544 net.cpp:425] conv3_1_fine <- pool2_fine
I1107 09:11:50.269467 13544 net.cpp:399] conv3_1_fine -> conv3_1_fine
I1107 09:11:50.270826 13544 net.cpp:141] Setting up conv3_1_fine
I1107 09:11:50.270848 13544 net.cpp:148] Top shape: 4 256 112 112 (12845056)
I1107 09:11:50.270853 13544 net.cpp:156] Memory required for data: 3220897856
I1107 09:11:50.270860 13544 layer_factory.hpp:77] Creating layer relu3_1_fine
I1107 09:11:50.270867 13544 net.cpp:91] Creating Layer relu3_1_fine
I1107 09:11:50.270872 13544 net.cpp:425] relu3_1_fine <- conv3_1_fine
I1107 09:11:50.270879 13544 net.cpp:386] relu3_1_fine -> conv3_1_fine (in-place)
I1107 09:11:50.270889 13544 net.cpp:141] Setting up relu3_1_fine
I1107 09:11:50.270895 13544 net.cpp:148] Top shape: 4 256 112 112 (12845056)
I1107 09:11:50.270905 13544 net.cpp:156] Memory required for data: 3272278080
I1107 09:11:50.270922 13544 layer_factory.hpp:77] Creating layer conv3_2_fine
I1107 09:11:50.270931 13544 net.cpp:91] Creating Layer conv3_2_fine
I1107 09:11:50.270936 13544 net.cpp:425] conv3_2_fine <- conv3_1_fine
I1107 09:11:50.270943 13544 net.cpp:399] conv3_2_fine -> conv3_2_fine
I1107 09:11:50.273197 13544 net.cpp:141] Setting up conv3_2_fine
I1107 09:11:50.273214 13544 net.cpp:148] Top shape: 4 256 112 112 (12845056)
I1107 09:11:50.273229 13544 net.cpp:156] Memory required for data: 3323658304
I1107 09:11:50.273237 13544 layer_factory.hpp:77] Creating layer relu3_2_fine
I1107 09:11:50.273244 13544 net.cpp:91] Creating Layer relu3_2_fine
I1107 09:11:50.273250 13544 net.cpp:425] relu3_2_fine <- conv3_2_fine
I1107 09:11:50.273257 13544 net.cpp:386] relu3_2_fine -> conv3_2_fine (in-place)
I1107 09:11:50.273264 13544 net.cpp:141] Setting up relu3_2_fine
I1107 09:11:50.273270 13544 net.cpp:148] Top shape: 4 256 112 112 (12845056)
I1107 09:11:50.273274 13544 net.cpp:156] Memory required for data: 3375038528
I1107 09:11:50.273277 13544 layer_factory.hpp:77] Creating layer conv3_3_fine
I1107 09:11:50.273288 13544 net.cpp:91] Creating Layer conv3_3_fine
I1107 09:11:50.273291 13544 net.cpp:425] conv3_3_fine <- conv3_2_fine
I1107 09:11:50.273298 13544 net.cpp:399] conv3_3_fine -> conv3_3_fine
I1107 09:11:50.275584 13544 net.cpp:141] Setting up conv3_3_fine
I1107 09:11:50.275600 13544 net.cpp:148] Top shape: 4 256 112 112 (12845056)
I1107 09:11:50.275605 13544 net.cpp:156] Memory required for data: 3426418752
I1107 09:11:50.275619 13544 layer_factory.hpp:77] Creating layer relu3_3_fine
I1107 09:11:50.275626 13544 net.cpp:91] Creating Layer relu3_3_fine
I1107 09:11:50.275631 13544 net.cpp:425] relu3_3_fine <- conv3_3_fine
I1107 09:11:50.275638 13544 net.cpp:386] relu3_3_fine -> conv3_3_fine (in-place)
I1107 09:11:50.275645 13544 net.cpp:141] Setting up relu3_3_fine
I1107 09:11:50.275650 13544 net.cpp:148] Top shape: 4 256 112 112 (12845056)
I1107 09:11:50.275655 13544 net.cpp:156] Memory required for data: 3477798976
I1107 09:11:50.275668 13544 layer_factory.hpp:77] Creating layer pool3_fine
I1107 09:11:50.275676 13544 net.cpp:91] Creating Layer pool3_fine
I1107 09:11:50.275679 13544 net.cpp:425] pool3_fine <- conv3_3_fine
I1107 09:11:50.275686 13544 net.cpp:399] pool3_fine -> pool3_fine
I1107 09:11:50.275732 13544 net.cpp:141] Setting up pool3_fine
I1107 09:11:50.275738 13544 net.cpp:148] Top shape: 4 256 56 56 (3211264)
I1107 09:11:50.275743 13544 net.cpp:156] Memory required for data: 3490644032
I1107 09:11:50.275746 13544 layer_factory.hpp:77] Creating layer conv4_1_fine
I1107 09:11:50.275755 13544 net.cpp:91] Creating Layer conv4_1_fine
I1107 09:11:50.275760 13544 net.cpp:425] conv4_1_fine <- pool3_fine
I1107 09:11:50.275766 13544 net.cpp:399] conv4_1_fine -> conv4_1_fine
I1107 09:11:50.279959 13544 net.cpp:141] Setting up conv4_1_fine
I1107 09:11:50.279975 13544 net.cpp:148] Top shape: 4 512 56 56 (6422528)
I1107 09:11:50.279980 13544 net.cpp:156] Memory required for data: 3516334144
I1107 09:11:50.279989 13544 layer_factory.hpp:77] Creating layer relu4_1_fine
I1107 09:11:50.279995 13544 net.cpp:91] Creating Layer relu4_1_fine
I1107 09:11:50.280010 13544 net.cpp:425] relu4_1_fine <- conv4_1_fine
I1107 09:11:50.280019 13544 net.cpp:386] relu4_1_fine -> conv4_1_fine (in-place)
I1107 09:11:50.280026 13544 net.cpp:141] Setting up relu4_1_fine
I1107 09:11:50.280032 13544 net.cpp:148] Top shape: 4 512 56 56 (6422528)
I1107 09:11:50.280035 13544 net.cpp:156] Memory required for data: 3542024256
I1107 09:11:50.280040 13544 layer_factory.hpp:77] Creating layer conv4_2_fine
I1107 09:11:50.280047 13544 net.cpp:91] Creating Layer conv4_2_fine
I1107 09:11:50.280051 13544 net.cpp:425] conv4_2_fine <- conv4_1_fine
I1107 09:11:50.280059 13544 net.cpp:399] conv4_2_fine -> conv4_2_fine
I1107 09:11:50.287477 13544 net.cpp:141] Setting up conv4_2_fine
I1107 09:11:50.287495 13544 net.cpp:148] Top shape: 4 512 56 56 (6422528)
I1107 09:11:50.287509 13544 net.cpp:156] Memory required for data: 3567714368
I1107 09:11:50.287542 13544 layer_factory.hpp:77] Creating layer relu4_2_fine
I1107 09:11:50.287551 13544 net.cpp:91] Creating Layer relu4_2_fine
I1107 09:11:50.287566 13544 net.cpp:425] relu4_2_fine <- conv4_2_fine
I1107 09:11:50.287575 13544 net.cpp:386] relu4_2_fine -> conv4_2_fine (in-place)
I1107 09:11:50.287583 13544 net.cpp:141] Setting up relu4_2_fine
I1107 09:11:50.287590 13544 net.cpp:148] Top shape: 4 512 56 56 (6422528)
I1107 09:11:50.287593 13544 net.cpp:156] Memory required for data: 3593404480
I1107 09:11:50.287596 13544 layer_factory.hpp:77] Creating layer conv4_3_fine
I1107 09:11:50.287607 13544 net.cpp:91] Creating Layer conv4_3_fine
I1107 09:11:50.287611 13544 net.cpp:425] conv4_3_fine <- conv4_2_fine
I1107 09:11:50.287617 13544 net.cpp:399] conv4_3_fine -> conv4_3_fine
I1107 09:11:50.295102 13544 net.cpp:141] Setting up conv4_3_fine
I1107 09:11:50.295122 13544 net.cpp:148] Top shape: 4 512 56 56 (6422528)
I1107 09:11:50.295126 13544 net.cpp:156] Memory required for data: 3619094592
I1107 09:11:50.295135 13544 layer_factory.hpp:77] Creating layer relu4_3_fine
I1107 09:11:50.295143 13544 net.cpp:91] Creating Layer relu4_3_fine
I1107 09:11:50.295157 13544 net.cpp:425] relu4_3_fine <- conv4_3_fine
I1107 09:11:50.295163 13544 net.cpp:386] relu4_3_fine -> conv4_3_fine (in-place)
I1107 09:11:50.295171 13544 net.cpp:141] Setting up relu4_3_fine
I1107 09:11:50.295177 13544 net.cpp:148] Top shape: 4 512 56 56 (6422528)
I1107 09:11:50.295181 13544 net.cpp:156] Memory required for data: 3644784704
I1107 09:11:50.295186 13544 layer_factory.hpp:77] Creating layer pool4_fine
I1107 09:11:50.295194 13544 net.cpp:91] Creating Layer pool4_fine
I1107 09:11:50.295199 13544 net.cpp:425] pool4_fine <- conv4_3_fine
I1107 09:11:50.295205 13544 net.cpp:399] pool4_fine -> pool4_fine
I1107 09:11:50.295253 13544 net.cpp:141] Setting up pool4_fine
I1107 09:11:50.295261 13544 net.cpp:148] Top shape: 4 512 28 28 (1605632)
I1107 09:11:50.295265 13544 net.cpp:156] Memory required for data: 3651207232
I1107 09:11:50.295269 13544 layer_factory.hpp:77] Creating layer conv5_1_fine
I1107 09:11:50.295280 13544 net.cpp:91] Creating Layer conv5_1_fine
I1107 09:11:50.295285 13544 net.cpp:425] conv5_1_fine <- pool4_fine
I1107 09:11:50.295292 13544 net.cpp:399] conv5_1_fine -> conv5_1_fine
I1107 09:11:50.302785 13544 net.cpp:141] Setting up conv5_1_fine
I1107 09:11:50.302808 13544 net.cpp:148] Top shape: 4 512 28 28 (1605632)
I1107 09:11:50.302812 13544 net.cpp:156] Memory required for data: 3657629760
I1107 09:11:50.302827 13544 layer_factory.hpp:77] Creating layer relu5_1_fine
I1107 09:11:50.302841 13544 net.cpp:91] Creating Layer relu5_1_fine
I1107 09:11:50.302847 13544 net.cpp:425] relu5_1_fine <- conv5_1_fine
I1107 09:11:50.302855 13544 net.cpp:386] relu5_1_fine -> conv5_1_fine (in-place)
I1107 09:11:50.302872 13544 net.cpp:141] Setting up relu5_1_fine
I1107 09:11:50.302878 13544 net.cpp:148] Top shape: 4 512 28 28 (1605632)
I1107 09:11:50.302882 13544 net.cpp:156] Memory required for data: 3664052288
I1107 09:11:50.302886 13544 layer_factory.hpp:77] Creating layer conv5_2_fine
I1107 09:11:50.302906 13544 net.cpp:91] Creating Layer conv5_2_fine
I1107 09:11:50.302909 13544 net.cpp:425] conv5_2_fine <- conv5_1_fine
I1107 09:11:50.302917 13544 net.cpp:399] conv5_2_fine -> conv5_2_fine
I1107 09:11:50.310405 13544 net.cpp:141] Setting up conv5_2_fine
I1107 09:11:50.310423 13544 net.cpp:148] Top shape: 4 512 28 28 (1605632)
I1107 09:11:50.310427 13544 net.cpp:156] Memory required for data: 3670474816
I1107 09:11:50.310443 13544 layer_factory.hpp:77] Creating layer relu5_2_fine
I1107 09:11:50.310453 13544 net.cpp:91] Creating Layer relu5_2_fine
I1107 09:11:50.310458 13544 net.cpp:425] relu5_2_fine <- conv5_2_fine
I1107 09:11:50.310464 13544 net.cpp:386] relu5_2_fine -> conv5_2_fine (in-place)
I1107 09:11:50.310473 13544 net.cpp:141] Setting up relu5_2_fine
I1107 09:11:50.310479 13544 net.cpp:148] Top shape: 4 512 28 28 (1605632)
I1107 09:11:50.310483 13544 net.cpp:156] Memory required for data: 3676897344
I1107 09:11:50.310487 13544 layer_factory.hpp:77] Creating layer conv5_3_fine
I1107 09:11:50.310531 13544 net.cpp:91] Creating Layer conv5_3_fine
I1107 09:11:50.310536 13544 net.cpp:425] conv5_3_fine <- conv5_2_fine
I1107 09:11:50.310546 13544 net.cpp:399] conv5_3_fine -> conv5_3_fine
I1107 09:11:50.318012 13544 net.cpp:141] Setting up conv5_3_fine
I1107 09:11:50.318033 13544 net.cpp:148] Top shape: 4 512 28 28 (1605632)
I1107 09:11:50.318048 13544 net.cpp:156] Memory required for data: 3683319872
I1107 09:11:50.318056 13544 layer_factory.hpp:77] Creating layer relu5_3_fine
I1107 09:11:50.318065 13544 net.cpp:91] Creating Layer relu5_3_fine
I1107 09:11:50.318070 13544 net.cpp:425] relu5_3_fine <- conv5_3_fine
I1107 09:11:50.318078 13544 net.cpp:386] relu5_3_fine -> conv5_3_fine (in-place)
I1107 09:11:50.318087 13544 net.cpp:141] Setting up relu5_3_fine
I1107 09:11:50.318104 13544 net.cpp:148] Top shape: 4 512 28 28 (1605632)
I1107 09:11:50.318109 13544 net.cpp:156] Memory required for data: 3689742400
I1107 09:11:50.318112 13544 layer_factory.hpp:77] Creating layer bilinear_layer_fused
I1107 09:11:50.345880 13544 net.cpp:91] Creating Layer bilinear_layer_fused
I1107 09:11:50.345901 13544 net.cpp:425] bilinear_layer_fused <- conv5_3_coarse
I1107 09:11:50.345918 13544 net.cpp:425] bilinear_layer_fused <- conv5_3_fine
I1107 09:11:50.345930 13544 net.cpp:399] bilinear_layer_fused -> bilinear_fused
I1107 09:11:50.347262 13544 net.cpp:141] Setting up bilinear_layer_fused
I1107 09:11:50.347276 13544 net.cpp:148] Top shape: 4 8192 1 1 (32768)
I1107 09:11:50.347281 13544 net.cpp:156] Memory required for data: 3689873472
I1107 09:11:50.347291 13544 layer_factory.hpp:77] Creating layer signed_sqrt_layer_fused
I1107 09:11:50.347316 13544 net.cpp:91] Creating Layer signed_sqrt_layer_fused
I1107 09:11:50.347321 13544 net.cpp:425] signed_sqrt_layer_fused <- bilinear_fused
I1107 09:11:50.347328 13544 net.cpp:399] signed_sqrt_layer_fused -> bilinear_sqrt_fused
I1107 09:11:50.347357 13544 net.cpp:141] Setting up signed_sqrt_layer_fused
I1107 09:11:50.347364 13544 net.cpp:148] Top shape: 4 8192 1 1 (32768)
I1107 09:11:50.347368 13544 net.cpp:156] Memory required for data: 3690004544
I1107 09:11:50.347373 13544 layer_factory.hpp:77] Creating layer l2_normalization_layer_fused
I1107 09:11:50.347380 13544 net.cpp:91] Creating Layer l2_normalization_layer_fused
I1107 09:11:50.347385 13544 net.cpp:425] l2_normalization_layer_fused <- bilinear_sqrt_fused
I1107 09:11:50.347393 13544 net.cpp:399] l2_normalization_layer_fused -> bilinear_l2_fused
I1107 09:11:50.347432 13544 net.cpp:141] Setting up l2_normalization_layer_fused
I1107 09:11:50.347445 13544 net.cpp:148] Top shape: 4 8192 1 1 (32768)
I1107 09:11:50.347450 13544 net.cpp:156] Memory required for data: 3690135616
I1107 09:11:50.347453 13544 layer_factory.hpp:77] Creating layer fc8_cub200_fused
I1107 09:11:50.347465 13544 net.cpp:91] Creating Layer fc8_cub200_fused
I1107 09:11:50.347468 13544 net.cpp:425] fc8_cub200_fused <- bilinear_l2_fused
I1107 09:11:50.347475 13544 net.cpp:399] fc8_cub200_fused -> fc8_cub_fused
I1107 09:11:50.350350 13544 net.cpp:141] Setting up fc8_cub200_fused
I1107 09:11:50.350366 13544 net.cpp:148] Top shape: 4 100 (400)
I1107 09:11:50.350378 13544 net.cpp:156] Memory required for data: 3690137216
I1107 09:11:50.350385 13544 layer_factory.hpp:77] Creating layer fc8_cub_fused_fc8_cub200_fused_0_split
I1107 09:11:50.350394 13544 net.cpp:91] Creating Layer fc8_cub_fused_fc8_cub200_fused_0_split
I1107 09:11:50.350399 13544 net.cpp:425] fc8_cub_fused_fc8_cub200_fused_0_split <- fc8_cub_fused
I1107 09:11:50.350405 13544 net.cpp:399] fc8_cub_fused_fc8_cub200_fused_0_split -> fc8_cub_fused_fc8_cub200_fused_0_split_0
I1107 09:11:50.350414 13544 net.cpp:399] fc8_cub_fused_fc8_cub200_fused_0_split -> fc8_cub_fused_fc8_cub200_fused_0_split_1
I1107 09:11:50.350455 13544 net.cpp:141] Setting up fc8_cub_fused_fc8_cub200_fused_0_split
I1107 09:11:50.350461 13544 net.cpp:148] Top shape: 4 100 (400)
I1107 09:11:50.350466 13544 net.cpp:148] Top shape: 4 100 (400)
I1107 09:11:50.350471 13544 net.cpp:156] Memory required for data: 3690140416
I1107 09:11:50.350503 13544 layer_factory.hpp:77] Creating layer loss_fused
I1107 09:11:50.350513 13544 net.cpp:91] Creating Layer loss_fused
I1107 09:11:50.350518 13544 net.cpp:425] loss_fused <- fc8_cub_fused_fc8_cub200_fused_0_split_0
I1107 09:11:50.350525 13544 net.cpp:425] loss_fused <- label_fine_data_2_split_0
…
